backend/ai_engine/pathway/models/pathway_policy_v1.pth (torch, 12588 bytes, 6 tensors)

fc1.weight f4 [64, 3]
0.14529553 0.5690117 0.63510376 0.305447 0.03690431 -0.32407808 -0.38018653 -0.20170566
0.108988985 0.32176262 0.40290502 -0.1773399 0.5040193 0.11854836 -0.45004177 0.44909936
0.0008881396 0.22381175 -0.123041645 0.4114141 -0.5395569 0.06772232 0.45433897 0.40154722
0.32008827 -0.057552036 -0.1032927 0.408326 0.00052912004 0.007683107 -0.13641217 -0.112431705
-0.086356886 -0.40653247 0.31447542 -0.012084248 0.52838516 0.6335656 0.22655357 0.7832484
0.4292371 -0.25906911 -0.4504487 0.27655673 -0.3488805 0.069831155 -0.5178838 0.5340574
0.08496365 0.49867225 -0.42669734 -0.022128835 0.20320328 -0.5904001 0.09564046 0.5541151
0.082260326 -0.49559277 -0.38372922 -0.2580243 0.2438519 0.11507485 0.38636053 0.40046012
0.55209213 0.29341045 0.3711427 -0.15211836 -0.12463612 -0.18117759 -0.25984687 -0.28694376
-0.096558 0.0740493 -0.25980827 0.075043276 0.11729375 0.6073283 0.43692216 0.07944414
-0.012954019 -0.6722325 0.3573589 0.15441298 0.5309016 0.18839881 -0.4060489 -0.24222273
0.20412683 -0.10181055 0.443841 0.5387256 0.049899343 0.57578766 0.119657345 0.34564593
-0.5360849 -0.5021814 0.6540562 -0.51500386 0.40037122 -0.114501655 -0.4870843 0.17768785
0.13329762 0.20525575 0.6611034 -0.09587149 0.16572571 -0.24440491 -0.51859343 0.4524895
-0.47919342 0.007768488 -0.34621406 -0.008765056 0.22565484 0.7681365 -0.28785974 -0.35065666
0.49963927 0.45133573 0.3521649 -0.5470492 -0.49924865 0.0051151123 -0.2763024 -0.32076737
0.45383316 0.4474085 0.31710893 0.042289615 -0.041066945 -0.36873385 -0.12700889 -0.24112695
-0.24413078 0.11628442 -0.52089345 0.095128834 0.520961 -0.020501174 -0.5532545 0.16562285
-0.27540854 -0.32922518 -0.03127022 0.48496154 0.608584 0.5063804 0.22357512 0.6297272
0.4406119 0.6976597 -0.19388542 0.41026995 -0.19316381 -0.0407694 0.37175915 -0.010458448
0.43353057 0.06198345 0.2607674 -0.37706333 0.54334855 0.18104316 0.5115767 0.110222526
-0.45014778 0.2953706 -0.22892213 -0.33859497 0.4572812 0.15511343 -0.41967073 -0.07802439
-0.4595074 -0.063342735 -0.4199759 -0.3104677 0.25586435 -0.49476632 -0.38530967 0.17408589
-0.041299164 -0.51633275 -0.6784975 0.4266799 -0.06610519 -0.41726148 -0.57699656 -0.3897646
00000000: 5ac8 143e c0aa 113f 2996 223f 8d63 9c3e
00000010: f928 173d 90ed a5be cfa7 c2be ee8b 4ebe
00000020: 9e35 df3d 12be a43e 9149 ce3e 9798 35be
00000030: 6907 013f 7cc9 f23d e06b e6be 5af0 e53e
00000040: 0ad2 683a e82e 653e 42fd fbbd dea4 d23e
00000050: 6720 0abf 00b2 8a3d 1e9f e83e 9997 cd3e
00000060: 9ce2 a33e afbb 6bbd 208b d3bd 1b10 d13e
00000070: a5b4 0a3a 93c2 fb3b a2af 0bbe 9842 e6bd
00000080: e1db b0bd 0625 d0be ec02 a13e 02fd 45bc
00000090: 4044 073f 5b31 223f a9fd 673e f882 483f
000000a0: f7c4 db3e b5a4 84be 36a1 e6be d898 8d3e
000000b0: 77a0 b2be a303 8f3d 0894 04bf fcb7 083f
000000c0: 6c01 ae3d f851 ff3e 1378 dabe 8847 b5bc
000000d0: 8514 503e 7624 17bf 25df c33d 7dda 0d3f
000000e0: 1a78 a83d 56be fdbe 2878 c4be c31b 84be
000000f0: 50b4 793e 5dac eb3d 0cd1 c53e 1c09 cd3e
00000100: e955 0d3f e539 963e 6a06 be3e eac4 1bbe
00000110: 3941 ffbd 9e86 39be a60a 85be 4bea 92be
00000120: 33c0 c5bd 29a7 973d 9705 85be 4ab0 993d
00000130: b537 f03d de79 1b3f 43b4 df3e 9cb3 a23d
00000140: 183d 54bc 6e17 2cbf bff7 b63e 701e 1e3e
00000150: 2be9 073f 9eeb 403e a4e5 cfbe 3c09 78be
00000160: a006 513e 0d82 d0bd 213f e33e ece9 093f
00000170: 4163 4c3d d266 133f e90e f53d 81f8 b03e
00000180: dc3c 09bf f68e 00bf 3a70 273f 4bd7 03bf
00000190: 75fd cc3e d87f eabd 1d63 f9be cef3 353e
000001a0: 2c7f 083e 902e 523e 133e 293f 4658 c4bd
000001b0: 00b4 293e 4845 7abe 8ac2 04bf b4ac e73e
000001c0: d758 f5be cd8e fe3b f842 b1be 4f9b 0fbc
000001d0: 1012 673e 98a4 443f 5a62 93be 4589 b3be
000001e0: b8d0 ff3e 7a15 e73e f54e b43e 6b0b 0cbf
000001f0: 859d ffbe ac9c a73b 8277 8dbe 9f3b a4be
00000200: d25c e83e ba12 e53e 1a5c a23e e037 2d3d
00000210: d035 28bd afca bcbe 9e0e 02be fce9 76be
00000220: 6bfd 79be 8726 ee3d 4659 05bf e8d2 c23d
00000230: b35d 053f 14f2 a7bc 16a2 0dbf 0999 293e
00000240: 5902 8dbe 3490 a8be 3415 00bd e14c f83e
00000250: 29cc 1b3f 25a2 013f e0f0 643e cd35 213f
00000260: e297 e13e d399 323f e689 46be e70e d23e
00000270: bccc 45be d0fd 26bd 3757 be3e e959 2bbc
00000280: b8f7 dd3e 5ce2 7d3d 4e83 853e 720e c1be
00000290: e418 0b3f 6163 393e b1f6 023f 59bc e13d
000002a0: c579 e6be d13a 973e 906a 6abe 525c adbe
000002b0: c320 ea3e 0ed6 1e3e 15df d6be 40cb 9fbd
000002c0: 8e44 ebbe d6b9 81bd 1507 d7be 9ff5 9ebe
000002d0: a700 833e 0352 fdbe 4f47 c5be 9243 323e
000002e0: 5029 29bd 622e 04bf 03b2 2dbf ca75 da3e
000002f0: 2862 87bd 4ca3 d5be 0cb6 13bf 3a8f c7be

fc1.bias f4 [64]
-0.41996035 -0.45860916 -0.015145225 0.6468471 0.558229 0.44154713 0.119821094 -0.13836005
-0.20431717 0.4011428 -0.1216641 0.5010853 0.15166263 0.6454663 0.6865438 0.5296598
-0.40323246 0.4115228 0.4793014 -0.23518284 0.06167559 0.18727621 -0.3928214 -0.073889144
0.13803074 0.1962963 0.40907148 0.40504345 0.609349 -0.42690918 0.16619703 0.0734953
0.6199143 0.42866427 0.2873102 0.4130902 -0.008182046 0.0047948854 0.563899 0.52442724
0.13869874 0.122939095 -0.38360307 0.34687716 -0.1361017 -0.36750782 -0.55563146 -0.1473642
0.6343969 0.44637606 -0.061519653 -0.38054624 0.32794172 0.18347663 -0.10309351 0.056136332
-0.43288866 0.5613534 -0.06415949 -0.44192415 0.050695702 0.27090198 0.6948382 -0.45639575
00000000: 0b05 d7be d2ce eabe ae23 78bc c697 253f
00000010: 19e8 0e3f 7712 e23e c364 f53d 42ae 0dbe
00000020: 8538 51be 9762 cd3e 072b f9bd 2047 003f
00000030: 734d 1b3e 483d 253f 56c1 2f3f c997 073f
00000040: 7c74 cebe 1eb3 d23e fe66 f53e c5d3 70be
00000050: 8b9f 7c3d 56c5 3f3e e31f c9be 3153 97bd
00000060: ee57 0d3e e601 493e d171 d13e db61 cf3e
00000070: 4cfe 1b3f d793 dabe 8e2f 2a3e b484 963d
00000080: b4b2 1e3f e279 db3e 531a 933e 8f80 d33e
00000090: fd0d 06bc 6a1e 9d3b af5b 103f dd40 063f
000000a0: 0b07 0e3e 7ec7 fb3d 9f67 c4be e299 b13e
000000b0: 3e5e 0bbe fc29 bcbe dd3d 0ebf a4e6 16be
000000c0: d667 223f 678b e43e 08fc 7bbd f5d6 c2be
000000d0: fae7 a73e 4ce1 3b3e b122 d3bd 36ef 653d
000000e0: 95a3 ddbe dbb4 0f3f 0d66 83bd e243 e2be
000000f0: 4ca6 4f3d aab3 8a3e ebe0 313f b4ac e9be

fc2.weight f4 [32, 64]
-0.034376018 0.013092801 -0.12172948 -0.015988136 -0.017361905 -0.0020097466 -0.04944925 0.020752402
-0.12166548 -0.04002029 -0.025668487 -0.11636131 0.06724017 -0.13085863 0.0719992 -0.115235746
-0.015830517 0.0059230328 -0.06708989 0.0009441674 -0.07564593 -0.07366359 0.057087243 0.0083501935
-0.12404528 -0.046119284 0.05567413 0.049238086 0.093346424 -0.022149086 -0.13250676 -0.10373037
-0.025423909 0.068842664 -0.004758213 0.08581013 -0.045748398 0.015967235 0.052601945 -0.047398407
0.03905859 -0.1167804 0.03503038 0.057161223 0.045062304 -0.10739598 0.07253946 -0.06527014
-0.0720643 -0.031770457 0.05667949 0.05535482 0.032188397 -0.09982926 -0.08104214 -0.0033614289
0.008792818 0.024378987 -0.12155409 -0.088164344 0.021937668 -0.11460531 0.04405851 -0.006642133
0.25364628 -0.067322224 0.050107487 0.17462932 0.20850408 0.015869843 -0.023167416 0.017417137
-0.045094438 0.24326247 0.011927545 0.032491025 0.027567152 0.25436774 0.014062685 0.013169535
0.061163664 -0.10836908 0.23136087 0.019470692 0.21054971 0.03131237 -0.08263008 0.04052432
-0.030905783 0.17805384 0.2543261 -0.028498247 0.23067658 -0.08367199 0.12752704 0.14758301
-0.091538124 -0.057006996 0.06957419 0.13252865 0.10934417 0.14038879 -0.027143903 0.3329889
0.23028274 -0.016210958 0.04213605 0.039181706 0.029211074 0.093360916 0.01652591 -0.0081464965
-0.05800927 0.1678146 0.09526594 0.22843611 0.06469542 0.17208573 0.14598915 0.1329921
0.010027885 -0.01722233 0.09157193 -0.0032988936 -0.0047686845 0.06573583 0.06686053 -0.10167813
-0.025609706 -0.04850951 0.036108598 -0.09490732 -0.11997163 0.106643654 -0.06688 0.09687341
-0.081590325 0.07033568 -0.096521184 -0.0683021 -0.051151417 0.008922284 0.09768367 0.06154959
0.0038936883 -0.04656574 0.09076828 -0.058086082 0.082414575 0.11065905 -0.07244031 -0.11350873
-0.1125197 0.01513229 0.10656082 -0.0595478 0.0117829265 0.08592543 0.07157026 -0.12131845
-0.13159676 -0.040049836 -0.11860518 -0.029610448 -0.11324847 -0.04666783 -0.06664769 0.014098375
0.02378294 0.040904924 -0.015021145 -0.07183782 -0.071345896 0.024913073 -0.06715581 0.106997274
0.0046689254 -0.10381403 -0.074485414 -0.115350746 -0.07744404 -0.03538753 0.10089899 0.017807325
-0.02184701 -0.08555713 -0.107717946 0.05453506 0.10583705 0.016854078 0.10494667 0.062045187
-0.10374473 -0.021531448 0.03753102 -0.08847636 -0.0047242194 0.09356925 -0.013467416 0.012913495
-0.11099979 0.07910198 -0.0773011 -0.064067185 0.07050924 -0.10504486 0.029498145 0.025895134
-0.062963545 -0.122538835 -0.046438485 -0.03285992 -0.088176385 0.118043244 0.117843196 -0.017154962
0.050285697 -0.10906994 -0.03145057 0.11258645 -0.093974456 0.05085717 -0.05748865 -0.0891846
0.10537778 0.0675779 -0.11104539 0.039585024 0.044523522 0.026645064 0.005637154 -0.055692285
-0.061751664 0.12449758 -0.01711969 -0.0887083 0.10430613 0.030148327 -0.10907066 0.041663736
-0.007962525 -0.0710617 0.11053011 0.034384042 -0.12217142 -0.01787138 0.096454576 -0.019519448
-0.040889516 -0.04642564 -0.0616761 -0.004505515 -0.048974246 -0.12488617 -0.041494623 -0.089165226
00000000: decd 0cbd 3083 563c 4e4d f9bd 8df9 82bc
00000010: 8e3a 8ebc f4b5 03bb 4c8b 4abd f100 aa3c
00000020: c02b f9bd 51ec 23bd b846 d2bc d74e eebd
00000030: 37b5 893d ceff 05be 5174 933d b800 ecbd
00000040: 00af 81bc 0016 c23b 6d66 89bd 0082 773a
00000050: 41ec 9abd f0dc 96bd 50d4 693d 40cf 083c
00000060: 740b febd 93e7 3cbd 8e0a 643d e0ad 493d
00000070: 692c bf3d 0072 b5bc daaf 07be 9770 d4bd
00000080: cd45 d0bc 62fd 8c3d c9ea 9bbb 39bd af3d
00000090: ac62 3bbd b8cd 823c 2375 573d d524 42bd
000000a0: e6fb 1f3d 902a efbd 047c 0f3d e321 6a3d
000000b0: 4093 383d 6cf2 dbbd 928f 943d 5aac 85bd
000000c0: 7396 93bd bd21 02bd c128 683d bcbb 623d
000000d0: fbd7 033d 4873 ccbd 6cf9 a5bd 6b4b 5cbb
000000e0: c00f 103c 71b6 c73c 5af1 f8bd 828f b4bd
000000f0: a0b6 b33c 30b6 eabd b276 343d 40a6 d9bb
00000100: eddd 813e 3ce0 89bd 823d 4d3d 07d2 323e
00000110: 1882 553e 7901 823c 98c9 bdbc 62ae 8e3c
00000120: f2b4 38bd cc19 793e c06b 433c 4f15 053d
00000130: 82d4 e13c 7d3c 823e 2d67 663c 09c5 573c
00000140: c086 7a3d 9cf0 ddbd dde9 6c3e 0081 9f3c
00000150: 589a 573e 6641 003d f639 a9bd d4fc 253d
00000160: 202e fdbc bf53 363e 0837 823e 2875 e9bc
00000170: 7b36 6c3e 385c abbd 7396 023e 0020 173e
00000180: 5778 bbbd 2b80 69bd ea7c 8e3d 97b5 073e
00000190: d6ef df3d 14c2 0f3e e45c debc 857d aa3e
000001a0: 3dcf 6b3e d8cc 84bc da96 2c3d ff7c 203d
000001b0: 104c ef3c 0234 bf3d 5861 873c e278 05bc
000001c0: 219b 6dbd 97d7 2b3e ca1a c33d 28eb 693e
000001d0: 087f 843d 3e37 303e 2e7e 153e 152f 083e
000001e0: 004c 243c d815 8dbc 108a bb3d 4032 58bb
000001f0: a042 9cbb 82a0 863d 2cee 883d a03c d0bd
00000200: 72cb d1bc e8b1 46bd 9ce6 133d c55e c2bd
00000210: b0b3 f5bd fd67 da3d 62f8 88bd 9165 c63d
00000220: d418 a7bd 270c 903d e6ac c5bd f9e1 8bbd
00000230: 2684 51bd c52e 123c 600e c83d 6c1b 7c3d
00000240: 402d 7f3b b8bb 3ebd b8e4 b93d aceb 6dbd
00000250: f9c8 a83d 36a1 e23d 965b 94bd 4477 e8bd
00000260: ba70 e6bd 6ded 773c 8f3c da3d 65e8 73bd
00000270: 2d0d 413c acf9 af3d 6e93 923d cf75 f8bd
00000280: 4dc1 06be 4c0b 24bd 46e7 f2bd 9c91 f2bc
00000290: d0ee e7bd c426 3fbd 967e 88bd dffc 663c
000002a0: 71d4 c23c ec8b 273d 401b 76bc b51f 93bd
000002b0: cc1d 92bd 8016 cc3c fc88 89bd 6321 db3d
000002c0: c9fd 983b 739c d4bd cf8b 98bd 033d ecbd
000002d0: fb9a 9ebd 84f2 10bd 21a4 ce3d abe0 913c
000002e0: 80f8 b2bc 9438 afbd 3a9b dcbd 2860 5f3d
000002f0: 18c1 d83d 9011 8a3c 48ee d63d 1823 7e3d
00000300: 1e78 d4bd b862 b0bc 20ba 193d 1833 b5bd
00000310: a0cd 9abb 3ca1 bf3d 70a6 5cbc 2093 533c
00000320: dc53 e3bd 3800 a23d 0a50 9ebd a835 83bd
00000330: 2667 903d c221 d7bd 18a6 f13c 0822 d43c
00000340: 08f3 80bd a4f5 fabd 4836 3ebd 2098 06bd
00000350: d295 b4bd a8c0 f13d c657 f13d 9088 8cbc
00000360: 60f8 4d3d 1060 dfbd 50d2 00bd ba93 e63d
00000370: ae75 c0bd 9c4f 503d 3879 6bbd 6aa6 b6bd
00000380: 4ed0 d73d 4866 8a3d c46b e3bd e823 223d
00000390: 4c5e 363d c046 da3c e0b7 b83b 981d 64bd
000003a0: 50ef 7cbd 96f8 fe3d 983e 8cbc b2ac b5bd
000003b0: 749e d53d a0f9 f63c 7060 dfbd 98a7 2a3d
000003c0: 4075 02bc cc88 91bd 9c5d e23d 48d6 0c3d
000003d0: 0235 fabd 0067 92bc fa89 c53d 40e7 9fbc
000003e0: c47b 27bd d028 3ebd 14a0 7cbd 00a3 93bb
000003f0: 3899 48bd 52c4 ffbd 44f6 29bd 429c b6bd

fc2.bias f4 [32]
-0.090255044 0.14005613 0.07521293 -0.026694834 0.08696252 -0.06346388 0.0018642247 0.03727618
0.08240865 -0.06846778 0.10263807 -0.07380408 0.00089005235 -0.09507209 0.15463725 0.18591924
-0.098996505 -0.013304987 -0.1183427 -0.05509782 -0.077659085 0.029980011 0.16232151 -0.039486952
-0.05568281 -0.0770541 0.23917788 0.048757024 0.054585405 -0.10576393 -0.07717317 -0.04443716
00000000: a3d7 b8bd e06a 0f3e 3d09 9a3d 20af dabc
00000010: 6819 b23d 5af9 81bd 0059 f43a e8ae 183d
00000020: dec5 a83d d638 8cbd e933 d23d 9826 97bd
00000030: 6752 693a 28b5 c2bd 3a59 1e3e 9d61 3e3e
00000040: aebe cabd 29fd 59bc a85d f2bd 40ae 61bd
00000050: ba0b 9fbd a498 f53c 9c37 263e 12bd 21bd
00000060: a813 64bd 8ace 9dbd 0ceb 743e 72b5 473d
00000070: f294 5f3d c29a d8bd f80c 9ebd bd03 36bd

fc3.weight f4 [4, 32]
0.13025054 0.18044986 -0.0030420253 -0.15286584 -0.10116843 -0.098647185 0.08255554 -0.0108954655
-0.09979393 0.02897361 0.091276385 0.07654559 0.04940046 0.087079644 0.21430978 0.06694147
-0.138015 0.00029132972 -0.0052880174 -0.0643358 -0.09790738 -0.03841632 0.1079243 0.1510096
0.021561906 -0.082566604 -0.029209718 -0.049531493 -0.010289184 0.068521336 0.08965193 0.1341841
0.07645712 0.052438416 0.04470644 -0.060007945 0.13839042 -0.034025803 0.049670376 -0.16683581
-0.07954415 -0.033675972 0.23059498 -0.07836102 -0.09141558 0.103545114 -0.069491416 0.0977449
-0.15529975 -0.14359565 -0.15138444 0.11618074 -0.025689116 -0.06818623 0.095997036 -0.12958224
-0.0220738 -0.123718515 0.07632205 -0.098877 0.2140933 -0.15166253 -0.11943791 -0.0030766772
0.039513517 -0.09451488 -0.08759916 -0.17543617 0.14609094 0.101430565 0.1460652 -0.10215831
-0.09222967 0.09212436 -0.08084298 -0.001664084 0.11958395 -0.029709607 -0.32731616 -0.32904536
-0.06961576 -0.045129728 -0.05018094 0.1766831 -0.06482624 -0.13241896 -0.38675395 -0.28415126
0.13754459 -0.026333319 -0.11219359 -0.123641975 -0.19779645 -0.11233193 -0.12690194 0.007821033
0.012772264 -0.26488766 0.0258143 0.059403896 -0.15311159 -0.022291426 0.10735902 0.12544286
-0.00398077 0.13150828 -0.17005903 -0.1080697 0.052540593 0.08712251 -0.15437865 -0.273729
0.17545864 0.12010513 -0.06332833 0.09119347 0.028134892 0.07465429 -0.13176544 -0.23692904
-0.032623157 0.052144624 -0.33723712 0.10944639 -0.196969 -0.12953585 -0.09926278 0.12720107
00000000: 6660 053e d9c7 383e b75c 47bb dd88 1cbe
00000010: 6531 cfbd 8907 cabd e112 a93d e582 32bc
00000020: c360 ccbd 105a ed3c 1def ba3d efc3 9c3d
00000030: 2358 4a3d d056 b23d 0674 5b3e 9c18 893d
00000040: ce53 0dbe 9dbd 9839 1b47 adbb 7dc2 83bd
00000050: aa83 c8bd 6e5a 1dbd 6a07 dd3d 43a2 1a3e
00000060: 98a2 b03c ae18 a9bd 3849 efbc 89e1 4abd
00000070: f793 28bc ea54 8c3d 6e9b b73d 8f67 093e
00000080: 8d95 9c3d aac9 563d 1a1e 373d e4ca 75bd
00000090: 38b6 0d3e a45e 0bbd 2a73 4b3d 02d7 2abe
000000a0: 0be8 a2bd d1ef 09bd 1721 6c3e be7b a0bd
000000b0: 1738 bbbd 760f d43d 8451 8ebd 7a2e c83d
000000c0: e606 1fbe bd0a 13be 8604 1bbe 2bf0 ed3d
000000d0: fb71 d2bc 39a5 8bbd 189a c43d 35b1 04be
000000e0: 1dd4 b4bc 2260 fdbd bc4e 9c3d 0680 cabd
000000f0: 463b 5b3e 6c4d 1bbe dd9b f4bd 14a2 49bb
00000100: edd8 213d 0491 c1bd 3067 b3bd 8aa5 33be
00000110: dd98 153e d4ba cf3d 1e92 153e 6038 d1bd
00000120: e9e2 bcbd b2ab bc3d 0191 a5bd 651d daba
00000130: 6ee8 f43d 9061 f3bc fc95 a7be a278 a8be
00000140: b592 8ebd f3d9 38bd 888a 4dbd 6aec 343e
00000150: 9fc3 84bd d698 07be 9d04 c6be 467c 91be
00000160: 7dd8 0c3e f9b8 d7bc c1c5 e5bd 0138 fdbd
00000170: 278b 4abe 480e e6bd 95f2 01be ca23 003c
00000180: c242 513c 5b9f 87be 8378 d33c 8051 733d
00000190: 49c9 1cbe 829c b6bc 0cdf db3d 1874 003e
000001a0: 1e71 82bb 1baa 063e f423 2ebe a653 ddbd
000001b0: ce34 573d 496d b23d 7015 1ebe 3526 8cbe
000001c0: 6eab 333e aef9 f53d 49b2 81bd a4c3 ba3d
000001d0: 257b e63c 59e4 983d 85ed 06be 879d 72be
000001e0: dc9f 05bd 9a95 553d 58aa acbe 6e25 e03d
000001f0: 3eb2 49be 0ca5 04be 494a cbbd ff40 023e

fc3.bias f4 [4]
-0.07386809 0.1661155 -0.11072105 0.042692106
00000000: 2748 97bd 2e1a 2a3e b8c1 e2bd ebdd 2e3d
